model.pth (torch, 17280 bytes, 4 tensors)

linear1.weight f4 [256, 11]
000000 60 cb 07 3d 44 f0 90 bd 69 a8 9a be da 6a 07 be
       0.033152938 -0.07077077 -0.30206612 -0.13224354
000010 d5 4a c2 3d cf fb 75 be 0f c3 3f bc 8e c5 29 be
       0.09486929 -0.24021839 -0.01170422 -0.16579267
000020 a6 c7 ed 3d 0f d1 40 be 19 a0 33 3d 1c 29 5b bf
       0.116103455 -0.1882975 0.043853853 -0.856096
000030 a0 a3 a3 be a9 ac 07 3e b3 15 97 3e 49 7f 85 bf
       -0.31960773 0.13249458 0.29508743 -1.0429469
000040 d4 90 7c bf 32 ec c1 3e dd e1 4f 3e 66 7e 9c bf
       -0.9865849 0.37875515 0.20301004 -1.2226074
000050 32 d6 61 bf 20 10 e3 bd ed 36 3a 3f ad a4 e5 3e
       -0.8821746 -0.1108706 0.7274006 0.448522
000060 2d c6 fd 3d 22 c4 75 be 93 af 12 3f c1 d6 34 bf
       0.12391315 -0.240006 0.57299155 -0.7064019
000070 62 d9 2a 3d b9 3e 95 3e 68 d2 55 bd 5b 6e 0e 3f
       0.04171122 0.29149416 -0.052202612 0.5563714
000080 87 ad b5 3e e1 04 c7 3e 84 f0 6d be 85 0a 30 3e
       0.35483953 0.3887091 -0.2323628 0.17191513
000090 f5 9d 77 be ca c9 d9 bd 33 29 55 3c d4 d8 35 be
       -0.2418135 -0.10634191 0.013010311 -0.17758495
0000a0 da 4b 5a 3d 98 7e f0 be fa a4 43 bc b4 f3 fb 3c
       0.053294994 -0.46971583 -0.011941189 0.030755855
0000b0 f2 a2 b5 ba b2 35 36 3e e4 a3 55 bf db 68 16 be
       -0.0013857766 0.1779392 -0.834532 -0.14688437
0000c0 35 dc 83 3d c9 e3 6e 3b 72 01 1a be 6c 8e 1f be
       0.064384855 0.0036451689 -0.15039614 -0.15581673
0000d0 6e 6d 92 be a5 aa d9 be 27 e0 b4 be 96 fb a3 be
       -0.28599113 -0.42513004 -0.35327265 -0.32027882
0000e0 df 40 b1 bd bf 40 a4 3e 49 3e 35 bf 63 26 5d bf
       -0.08654951 0.32080647 -0.70798165 -0.863867
0000f0 9d c3 d7 3e 54 c0 ba 3e c0 c1 60 bf 14 95 7d bf
       0.4214143 0.3647486 -0.8779564 -0.990556
000100 da f4 8f 3e c8 20 b9 3e c4 38 ee be d8 d0 94 be
       0.28116494 0.36157823 -0.46527684 -0.29065585
000110 06 b5 c5 be 13 03 f3 3e 63 ce 0a 3f 99 9a 38 3f
       -0.38614672 0.47463283 0.5422117 0.721109
000120 b0 f3 31 3f 08 63 bb be a8 f2 82 be 76 1b 70 be
       0.6951246 -0.36598992 -0.25575757 -0.23447976
000130 d5 55 6f be 39 6c 77 be 09 2c 80 3e 19 9b fb 3d
       -0.23372586 -0.24162377 0.25033596 0.12285442
000140 98 20 21 bd 1c 7f 92 be 85 ec 37 be 89 b9 8e be
       -0.039337724 -0.28612602 -0.17961319 -0.27875927
000150 69 70 e9 bd 1a fb da bd 95 4c 44 be fe 22 a1 be
       -0.11398394 -0.10692425 -0.19169839 -0.3147201
000160 f0 5a 6d bf 5d 84 64 3e db 92 48 3e 36 48 05 3e
       -0.92716885 0.22316118 0.19587271 0.13015828
000170 55 d5 99 be 3d 83 9d 3e 69 be 1a bf 7a bf d8 be
       -0.30045572 0.3076419 -0.6044679 -0.42333585
000180 74 5d 80 3e ba 6e f6 be ce 12 61 bf 96 2a c5 3e
       0.250713 -0.48131353 -0.8791932 0.38509053
000190 cf a8 84 bf fd 4f e5 3e 6e ab ae be 67 91 06 3e
       -1.0364016 0.4478759 -0.34115165 0.13141404
0001a0 d3 e1 ea be 3d 74 95 be 33 1d 9a bc 0a 07 c1 be
       -0.45875415 -0.29190245 -0.018812751 -0.37700683
0001b0 c6 6a 0a bf 1d e0 c1 be c0 2b 62 3f 48 b5 fd 3e
       -0.54069173 -0.37866297 0.8834801 0.4955237
0001c0 c3 e0 ee 3e 9b 45 d1 be 42 e4 1a 3d 90 58 e7 3c
       0.46655855 -0.40873417 0.03781534 0.028240472
0001d0 c0 6c 8f be 9d 6f 73 bd 53 f4 35 be 53 30 08 be
       -0.28012657 -0.059432615 -0.17768984 -0.13299684
0001e0 26 2a ab be c1 48 61 bf 08 dc 42 bf 27 2f 5a bf
       -0.33430594 -0.8800164 -0.7611699 -0.852282
0001f0 ad c0 8c be 97 f2 a9 be e9 a7 45 be 71 fe bc bd
       -0.2749075 -0.33192894 -0.19302334 -0.09228218
000200 17 b0 c3 be 04 ab d7 be f9 2b e3 be 51 04 15 bf
       -0.38220283 -0.42122662 -0.44369486 -0.5820971
000210 4c 10 66 bd 51 2a a9 be 53 d6 d4 bd 94 9d 06 bf
       -0.056167886 -0.33040097 -0.103924416 -0.52584195
000220 03 47 ce bd 9a 5e 23 3f 51 c7 57 bf 80 47 bf bf
       -0.10072138 0.63816226 -0.8428851 -1.4943695
000230 e4 da 7b bf 35 78 09 3f 18 84 64 bf ae 15 79 3b
       -0.98380876 0.53699046 -0.8926406 0.0038007307
000240 ce c2 14 bd a3 1e f6 bd 38 78 c4 bd 7d a6 a1 bd
       -0.036318593 -0.12017562 -0.095932424 -0.07893083
000250 bd f9 1e be 5d 5e d8 3c ef 74 b7 bd 13 31 07 3e
       -0.15524955 0.026412183 -0.0895785 0.13202314
000260 f1 a2 87 be ac c5 18 bc a0 09 27 bf 32 1c cb be
       -0.26491502 -0.009324472 -0.6524906 -0.3966995
000270 50 e2 88 bf c7 18 43 3e d5 5b d7 3e af e5 85 3e
       -1.0694065 0.1905242 0.4206225 0.26151797
000280 07 98 0d 3c 58 38 b3 be 8e 52 47 bf 97 7b b6 be
       0.008642203 -0.35003924 -0.77860343 -0.35641167
000290 83 06 e4 be 84 c9 90 3f 7f 08 c4 bd 04 ee 98 3e
       -0.44536218 1.1311498 -0.09571933 0.29869092
0002a0 5a e9 2f 3f c2 94 55 3e 87 f1 1d 3e ab 39 05 be
       0.6871544 0.20857528 0.15424167 -0.1301028
0002b0 c3 9f 9c be 37 d4 f0 3d 0e 52 42 bd 58 7f 00 3f
       -0.3059064 0.11759227 -0.047441535 0.5019431
0002c0 ba b2 9c be bc ae 39 3f fe 8c 9b bf f5 d3 39 3e
       -0.30605108 0.7253225 -1.2152402 0.18147261
0002d0 79 20 5b 3e 51 0f 8d 3e 2e 38 8a 3e 4a 2f cd be
       0.21399106 0.27550748 0.26995987 -0.4007514
0002e0 b5 b9 64 be 4a fc 5d be 1e 72 6c be a3 1f 74 3e
       -0.22336467 -0.21678272 -0.23090407 0.23840193
0002f0 31 9d 89 be ef 33 20 be 87 c5 98 3e 62 3b de be
       -0.2687774 -0.15644811 0.298382 -0.4340468
000300 c4 17 8c bd 8f dc df 3d f0 b4 b0 be 11 47 06 ba
       -0.068404704 0.1093074 -0.34513044 -0.0005122284
000310 39 7a b0 bd 90 3d 42 be 42 ce 21 3d fd 9f 8e be
       -0.08617062 -0.18968797 0.039503343 -0.27856436
000320 97 ce 01 3c 66 ed 7a be 7d 46 8b be 02 c6 38 3d
       0.00792279 -0.24504623 -0.27202216 0.04511071
000330 ec d3 7d 3e 43 a4 62 be 22 c6 e6 bc dc 16 6c be
       0.24787873 -0.22132973 -0.028170649 -0.23055595
000340 96 91 20 bd fd fe 4d 3f d0 32 85 3e 10 3a bf 3e
       -0.03920134 0.80467206 0.2601533 0.37348986
000350 60 29 2e bf 50 ab 58 be 27 b0 e6 bc 50 89 29 be
       -0.68031883 -0.211591 -0.028160168 -0.16556287
000360 cd b8 49 3e e3 c1 69 be d8 74 75 be 6d fe c9 be
       0.19699402 -0.22827868 -0.23970354 -0.39451924
000370 4c ef ac be bb f4 96 bf 16 82 61 3f 87 ef 17 bd
       -0.3377632 -1.1793436 0.8808912 -0.037093665
000380 a5 5e 82 3e 18 d1 0c 3e 27 4b 69 3d 21 27 6c be
       0.25462833 0.13751638 0.056956436 -0.23061801
000390 91 ba 04 be 4b 1d a0 be 06 49 54 be 26 13 0d 3f
       -0.12961794 -0.3127235 -0.20730981 0.55107343
0003a0 9e a1 0e bf 67 f1 d3 3e ca 13 d6 be 5e 46 e9 be
       -0.5571536 0.41395113 -0.41811973 -0.45561498
0003b0 04 71 b2 be 9d 59 ef 3d eb 32 54 3e 7d 9e f3 bd
       -0.3485185 0.11687014 0.20722549 -0.118954636
0003c0 73 e7 ef be b0 0d 9e be e8 e1 18 3e 13 f2 84 bd
       -0.4685627 -0.30869818 0.14929926 -0.064914845
0003d0 c3 ba 9a be 40 50 b8 3d 82 6a fc be 4d 0f be be
       -0.30220613 0.089996815 -0.4930001 -0.3712105
0003e0 0f 25 42 be e7 5f 53 3d 89 87 b2 be 3f f4 3f bf
       -0.18959449 0.05160513 -0.3486903 -0.74982065
0003f0 a4 fe 46 bf d7 53 50 3f e6 3d bf 3e 11 da 7e 3e
       -0.777323 0.8137793 0.37351912 0.24887873

linear1.bias f4 [256]
000000 6a 73 c7 be 7f a3 2d 3f 7c 74 32 bf 14 c0 48 bf
       -0.3895524 0.678276 -0.6970899 -0.7841809
000010 73 90 01 be 12 c6 a2 3e ee 2a 4c 3f a5 5f 74 be
       -0.12652759 0.3179174 0.79753006 -0.2386461
000020 dc 77 e8 bd bc 2b 27 be ea 63 89 bf 9f 1c f0 3e
       -0.11350986 -0.16325277 -1.0733616 0.46896836
000030 e2 4a 4b 3e 1f 14 97 be 0d f5 38 3f 12 c8 16 bf
       0.19852784 -0.2950754 0.7224892 -0.58899033
000040 9e 5e 5b 3f f7 b8 0c bf 4c 10 af be e0 55 39 bf
       0.8569125 -0.54969734 -0.3419212 -0.7239666
000050 1c ea 36 3f fd 9c ef bd 2e 73 95 be c6 6a 53 bf
       0.7145097 -0.11699865 -0.29189438 -0.825848
000060 73 0c 2e bd 47 13 85 3f 05 3d 45 bf bc 00 b6 3c
       -0.04249234 1.0396508 -0.77046233 0.022217147
000070 23 32 ca bd 75 2c bf be f2 3c 11 bf 55 51 54 bd
       -0.09872844 -0.37338606 -0.5673362 -0.051835377
000080 02 5b 0c bf af 23 f4 be f9 f2 01 bf 86 0e 55 bf
       -0.54826367 -0.47683474 -0.5076137 -0.83225286
000090 5c 38 a1 be f0 c5 42 be db 0c 0e 3e 18 2c 0e bf
       -0.3148831 -0.1902082 0.13872091 -0.5553603
0000a0 74 71 b8 3d d6 68 b6 3e ea 12 a9 be 83 24 65 bf
       0.090060145 0.35626858 -0.33022243 -0.8950884
0000b0 a4 7e 97 be a8 6a 9b be d3 cc 9a be 72 df f9 be
       -0.29588807 -0.3035481 -0.30234393 -0.48803288
0000c0 a8 1e 44 3e 17 0d 86 be ea 8f 89 be 71 13 30 bf
       0.1915232 -0.26181862 -0.2686761 -0.68779665
0000d0 9c 81 19 bf 07 f1 c9 be 95 a4 a2 be 6c 1c 2e 3d
       -0.59963393 -0.39441702 -0.3176619 0.042507574
0000e0 d1 66 11 bf f0 eb 9b be d7 74 0b bf fe 95 e4 be
       -0.5679751 -0.30453444 -0.5447516 -0.44645685
0000f0 0f 29 24 3e 27 95 a6 be 99 b5 5b b9 a0 64 4a 3f
       0.16031288 -0.3253567 -0.00020953118 0.7905979
000100 ee ef a8 bd c8 f8 9b be 85 0e 0c bf 7e 38 bc 3d
       -0.08248888 -0.30463243 -0.54709655 0.091904625
000110 8a 24 49 be 6d 29 5e 3e 64 af 83 be 3d ac b3 be
       -0.19642845 0.2169549 -0.2571975 -0.35092345
000120 ee e3 13 3d 5e 0a 0c bf f7 31 ff be c3 73 79 3c
       0.036106043 -0.5470332 -0.49842808 0.015225354
000130 3d 1e ed be e9 da 4f 3e f8 cb 40 bf b3 d4 99 be
       -0.46312132 0.20298351 -0.7531123 -0.3004509
000140 e0 1f 12 bf cb d4 f5 be 73 ff f7 3e 9b c3 56 be
       -0.5707989 -0.4801391 0.4843708 -0.20973055
000150 44 69 91 3e b4 7a 0c bf 79 e7 55 3e a1 7f 6c be
       0.28400624 -0.5487473 0.20889081 -0.23095562
000160 66 01 5b bf 7b 7f 3f 3f 8a 26 d1 3d 3a 41 21 be
       -0.8554901 0.74803895 0.10212429 -0.15747538
000170 d4 8b 86 3f bc c9 36 3d 14 22 8d be e6 c6 99 be
       1.0511422 0.044625983 -0.27565062 -0.3003456
000180 f6 07 dc 3e 0f e4 35 be c4 ee 07 bf 2e 6d 6c be
       0.42974824 -0.17762779 -0.530987 -0.23088524
000190 36 19 97 be 17 4d 39 bb f8 81 98 ba 05 5b 90 be
       -0.29511422 -0.002827471 -0.0011635413 -0.28194442
0001a0 81 30 39 bf 7d 12 68 3e 5c 30 58 bf 82 de 8a 3f
       -0.72339636 0.22663303 -0.8444879 1.0849154
0001b0 25 c1 1f bf da 4e 0f bf 06 ed 4c bf 25 dc 70 3f
       -0.6240409 -0.5597969 -0.8004917 0.94085914
0001c0 92 89 b5 be f9 45 d9 be 7d fd b5 be db a1 2c bf
       -0.3545652 -0.42436197 -0.3554496 -0.6743447
0001d0 3b d6 38 bf a3 75 59 be f1 f8 d8 be e3 e8 6e be
       -0.7220189 -0.21236281 -0.42377427 -0.23331027
0001e0 32 c1 fc be b6 b7 06 3e 96 04 2d be ca fe 0a 3f
       -0.49366146 0.13156018 -0.1689628 0.5429503
0001f0 93 fa e4 be 9c 49 b5 be 80 2d 95 be 78 98 7f 3d
       -0.44722423 -0.35407722 -0.29136276 0.062401265
000200 e1 57 05 bf 73 f4 25 bf 8a 58 b6 3d ae 52 10 bf
       -0.5208722 -0.64826125 0.08903606 -0.5637616
000210 5d 7f 02 bf b9 0f 21 3f c5 5a 23 bf 09 85 a7 bc
       -0.5097559 0.62914616 -0.6381038 -0.020449178
000220 ef 0a 1f bf 6a 3a 34 3e ed b2 44 bf f6 aa fc 3a
       -0.6212606 0.17600408 -0.7683552 0.0019277025
000230 b7 c2 d3 3d 5c 1a 99 be 3f aa df 3e b4 18 28 bf
       0.10339873 -0.29902923 0.43684575 -0.65662694
000240 04 2e 93 be 58 14 f7 be 54 f3 62 be 55 2e 3d be
       -0.28746045 -0.4825771 -0.22163135 -0.18474706
000250 3d e2 a4 be fe 0f 73 be d9 7c e1 be c4 62 23 3d
       -0.32203856 -0.2373657 -0.44040564 0.039889112
000260 50 1d 69 3f 39 1f 3d 3e 69 a0 76 3c 3e 7b e2 be
       0.9106035 0.18468942 0.015052893 -0.4423465
000270 59 4f 2e be 4c 1a 22 be ee bd 57 be ab 51 1b be
       -0.17022456 -0.15830344 -0.21068546 -0.15167873
000280 60 4e fd be 55 eb 06 be c8 96 db be 5d ff 5b bf
       -0.49473858 -0.1317571 -0.42888474 -0.8593653
000290 3a 70 a0 bd 1f 53 0a be cd 02 7d be 48 f2 7c 3f
       -0.078339055 -0.1350827 -0.247081 0.9880719
0002a0 dc 01 42 be 37 a5 b4 be 54 9a 4d 3f 7a 31 28 bf
       -0.18946022 -0.352823 0.8031361 -0.65700495
0002b0 eb 95 b6 be 98 7e 94 be cf 95 16 be 86 72 fe be
       -0.35661253 -0.29002833 -0.14705585 -0.4969675
0002c0 e9 0d 07 bd 0a 59 ba 3e 97 a9 38 bf 64 f3 07 be
       -0.03297225 0.36396056 -0.72133774 -0.1327644
0002d0 26 37 ff be fb ce bd be 06 01 70 bf ce 41 38 be
       -0.49846762 -0.37071976 -0.9375156 -0.17993852
0002e0 b6 7f 83 be 93 8a 19 be f1 b3 e2 be 51 a4 e7 3e
       -0.25683373 -0.14994268 -0.4427791 0.4524255
0002f0 03 a0 ae be 54 01 1f be 71 d2 0a be 3b 0b 9c bd
       -0.34106454 -0.1552785 -0.1355684 -0.076193295
000300 67 38 79 bd 98 76 06 bf e3 10 8f be 7c a8 18 bf
       -0.060844805 -0.5252471 -0.2794257 -0.59632087
000310 76 57 83 be 6e 38 3e bf 1d 39 b1 bd 38 76 3f be
       -0.25652665 -0.74304855 -0.086534716 -0.1869744
000320 da a6 00 3f c4 f3 e0 be 79 b0 0e 3f db a9 8a be
       0.50254595 -0.43935978 0.55738026 -0.27082714
000330 c1 25 1a be b3 5e 2e 3e f3 24 bd be 48 86 fe be
       -0.15053464 0.17028312 -0.36942253 -0.49711823
000340 db dc d5 be 31 01 14 3e 89 75 6b 3e 0a 17 93 3e
       -0.41770062 0.1445358 0.22994055 0.28728515
000350 47 b9 e4 bd c6 ad d1 3d d4 bc 04 bf e2 06 bf 3e
       -0.11168151 0.10238223 -0.5185063 0.3730994
000360 a6 2f 8d be 17 f4 b3 be 12 e0 25 bf f3 a4 2d be
       -0.27575415 -0.35147163 -0.6479503 -0.16957454
000370 d8 ea 7e bd 80 ca e8 bd a7 cf 78 3d 9f 68 c0 be
       -0.062235683 -0.11366749 0.060744908 -0.3757982
000380 40 dc 7b be b9 16 0f bf 98 97 9e be a1 0a 10 bf
       -0.24595737 -0.5589405 -0.30975032 -0.5626622
000390 26 6d 1a bf 57 62 01 bf b2 35 43 bf e6 0f a9 3e
       -0.603228 -0.5054068 -0.7625381 0.33019942
0003a0 3e 5b a5 3c f4 3d 78 bd 54 e9 85 bf 45 b1 e7 3e
       0.02018511 -0.060605958 -1.0461831 0.45252433
0003b0 5c ed 46 bf bd 1c 0c 3f 96 4a ca be 45 73 c3 be
       -0.7770593 0.5473135 -0.3951003 -0.3817388
0003c0 fd 56 55 bd c1 09 03 be 3c c7 45 3d 15 a4 c2 3d
       -0.05208491 -0.1279669 0.048285708 0.095039524
0003d0 05 35 67 ba 5e 8f 39 bf 2c b4 f4 be 44 90 09 be
       -0.0008819851 -0.72484386 -0.4779371 -0.13433939
0003e0 6c 35 8f 3d 08 f9 c6 3b d9 a7 2f be 0b 80 34 be
       0.06992611 0.0060721673 -0.17153873 -0.1762697
0003f0 56 0e 15 ba 59 b9 03 3f e4 40 82 be f4 a9 42 bf
       -0.0005686035 0.51454693 -0.25440133 -0.7604058

linear2.weight f4 [3, 256]
000000 3f 49 a2 3b 55 6e c8 3e fb 12 16 be b5 19 6f be
       0.0049525793 0.39146677 -0.14655678 -0.2334965
000010 d3 b8 0b bd 04 df 15 3f 34 39 c7 3e 53 3d ce 3c
       -0.03411181 0.5854342 0.3891083 0.025175726
000020 6b bc 17 3d d2 be 05 be 1e c6 21 bf 56 3c 1c bc
       0.037044924 -0.13061073 -0.6319293 -0.00953587
000030 b9 79 0d 3f b2 e8 11 bd 16 c5 ae 3d f8 c5 ca be
       0.5526386 -0.035622306 0.08533685 -0.39604163
000040 29 44 da 3e 75 b7 40 be bb df 58 bd 88 be e7 be
       0.42630127 -0.18819983 -0.05294774 -0.4526255
000050 03 8f d0 3e e2 7c fd be 02 24 71 bd 96 fa c0 be
       0.4073411 -0.4950934 -0.05887223 -0.37691182
000060 77 05 a8 3e 4e ea b4 3e b3 b6 eb bd 29 be 69 bc
       0.3281667 0.3533501 -0.115094565 -0.014266529
000070 73 08 1f 3c 17 aa 72 bf df ae 29 3d 0a 83 55 bc
       0.009706604 -0.94790787 0.041426536 -0.01303173
000080 fd 9d 25 bf af 87 f2 bd f6 f8 92 be a3 b8 f5 be
       -0.64694196 -0.11842286 -0.28705567 -0.4799243
000090 ec d5 99 bd 5f b1 8c 3d fe f2 7a be e4 aa ad bd
       -0.075115055 0.06869768 -0.24506757 -0.084798604
0000a0 51 85 af 3d 65 e6 80 3e f8 4a c1 bc 20 73 0f bf
       0.0857035 0.25175777 -0.023595318 -0.5603504
0000b0 a5 8d 4e 3d 13 ce d1 3c 7d 32 75 3c 87 2c 40 be
       0.05042805 0.02561096 0.014965651 -0.18766986
0000c0 bb a8 b0 3e 04 c1 0d bd 01 e0 22 bd dc df 8b bd
       0.3450373 -0.034607902 -0.039764408 -0.06829807
0000d0 a4 e0 c8 be e4 d4 3c 3c 8d 2c 8a bc 99 c1 e0 3d
       -0.39233887 0.011525366 -0.016866947 0.10974426
0000e0 7b 00 6d be 06 a7 55 3e 5f 52 da 3d ac 71 d2 bb
       -0.23144715 0.20864496 0.10660242 -0.006422242
0000f0 3b c8 17 bd a7 ce 70 b9 da 12 68 3e 7c eb 3f bd
       -0.03705619 -0.00022965168 0.22663441 -0.046855435
000100 6d 6d 69 be 64 7c 0d be 9b 46 98 bd ed 4f 69 3d
       -0.22795649 -0.13816983 -0.07435342 0.05696099
000110 4e 82 15 3c 18 28 bb 3e 18 cb 9a be 68 d2 4b bf
       0.009125305 0.36554027 -0.30233073 -0.7961793
000120 fe e3 62 3e 5e 57 66 be 72 bc 7e bc ee f6 a4 be
       0.22157285 -0.22494265 -0.015547859 -0.32219642
000130 33 56 03 be 33 41 88 3e ad 4e d8 bd 09 15 5c 3d
       -0.12825851 0.26612243 -0.10561881 0.053731
000140 ba 35 4b bc f4 6e 22 3f ed f2 45 bb 65 ae 6f 3d
       -0.012402946 0.6345055 -0.003020461 0.058515925
000150 6c 37 86 38 ef 59 cb bd 91 09 34 3b 65 f4 d9 bd
       6.399941e-05 -0.09929263 0.0027471522 -0.10642318
000160 7c 5f 98 be 2d dd 9c 3e 94 c3 5e bf 83 42 23 3c
       -0.2976035 0.30637494 -0.8701718 0.009964588
000170 9c 63 87 3e db c9 aa 3c 91 b4 3d bf ef 9a fd 3b
       0.26443183 0.020848205 -0.7410365 0.007739417
000180 fc ee ae 3e 4b ab c7 3d 73 72 f4 be 3e 94 8c be
       0.34166706 0.097494684 -0.47743568 -0.2745685
000190 a6 b1 39 bd d0 95 b7 be 28 d2 bf 3c 8b 6e 89 bd
       -0.045335434 -0.35856485 0.02341564 -0.067105375
0001a0 4a 69 32 bf 13 c7 e8 3e a4 cf 0b bf 97 e5 26 3f
       -0.6969191 0.45464382 -0.5461371 0.65194076
0001b0 77 83 a3 bd 38 a3 21 be e7 93 00 be ee 88 fd 3e
       -0.07984059 -0.1578492 -0.1255642 0.49518532
0001c0 c7 7c 29 bd e4 bb fd 3c 36 9d 83 be 34 69 6e be
       -0.041378763 0.030973382 -0.2570588 -0.2328232
0001d0 af 0f eb 3c 52 73 78 3c 21 5d 20 bd 94 a7 94 3e
       0.028694002 0.015164213 -0.039151315 0.29034102
0001e0 53 f3 93 bb c5 d3 d4 3c 54 02 3e 3d 34 a6 ed 3e
       -0.0045150905 0.025979886 0.04638894 0.46415865
0001f0 98 aa fd 3d 78 0f 04 bc eb 66 ea 3c eb fa 9b 3d
       0.12386054 -0.008060329 0.028613528 0.07616218
000200 cf fd 9f bd 85 d9 60 be f2 b8 6f 39 e7 89 f3 be
       -0.07812082 -0.21957977 0.00022861714 -0.4756615
000210 ad b5 df 3c 79 85 a6 3e 3e 1a 9e bd 5c 54 95 3d
       0.02730831 0.32523707 -0.07719849 0.07291481
000220 88 c5 35 be 61 73 b7 be 1b e5 84 bc 1d f8 11 bf
       -0.17751133 -0.35830215 -0.016222527 -0.57019216
000230 f8 f5 80 bd f3 d5 be ba 87 08 13 3f 76 ed 23 be
       -0.06296915 -0.0014559611 0.57434887 -0.16008553
000240 ab 96 16 bf 09 74 28 3d 9e 0b c8 be 2c 51 c3 be
       -0.5882365 0.041126285 -0.39071363 -0.38147867
000250 b7 ba 26 be 93 fc 84 3e 98 4a 81 bd c1 8a 50 3e
       -0.16282164 0.2597395 -0.06313056 0.2036543
000260 b6 5e 23 3e d8 af c8 bc e6 7d a3 ba 92 ec 9f 3e
       0.15954098 -0.024497911 -0.0012473434 0.31235176
000270 fe d8 06 bf 60 24 ed bc ab da 80 3d b5 7d b5 bc
       -0.52674854 -0.028948009 0.062917076 -0.022154668
000280 f2 11 8b 3c ae 66 d0 3b 13 44 a5 be 8b 72 4a 3c
       0.01697633 0.0063598966 -0.322785 0.012356411
000290 45 51 ef bb 32 f5 18 bf 6b a9 ff bc 23 93 f9 3d
       -0.0073033893 -0.5974914 -0.031208714 0.12186267
0002a0 4b b1 7a be e2 c9 a3 bc 62 83 67 3e f4 d4 db be
       -0.24481694 -0.019993726 0.22608712 -0.42935908
0002b0 47 c9 7b bb 30 72 7e be 6b ad 1e 3c d3 49 03 bd
       -0.0038419531 -0.24848247 0.009684901 -0.032052826
0002c0 35 ec 4c 3d 34 55 11 bd b0 32 38 be 59 d0 2e bd
       0.050029952 -0.035481647 -0.17988086 -0.042679165
0002d0 68 d5 74 be 09 1a 59 be 20 3b 82 bd e0 8a 0f 3e
       -0.23909533 -0.21201338 -0.063589334 0.1401782
0002e0 9e 79 e0 bb 90 9c 43 bd 02 aa 07 bf 9e eb 95 3e
       -0.0068504354 -0.04775673 -0.52993786 0.29281324
0002f0 1b f5 19 3d cd 37 c5 3b 0b 95 b1 bb ea e6 3b 3d
       0.037587266 0.006018615 -0.0054193786 0.045874514
000300 67 8b 87 3b 30 bf b1 bd 94 7c 3b bd 12 66 2c bf
       0.004136491 -0.08679044 -0.045773104 -0.67343247
000310 19 19 31 3b 79 8c cb be 62 a9 c0 be 13 23 87 3e
       0.0027023016 -0.3975561 -0.3762923 0.26393947
000320 6c 1b 47 3e 69 27 37 be f8 17 c0 3e f5 93 da 3d
       0.19444054 -0.17886128 0.37518287 0.10672752
000330 1e 57 eb bc 90 b7 ed bb 64 20 78 be ed ff 79 be
       -0.028728064 -0.0072545484 -0.24231106 -0.24414034
000340 d2 de b6 be 19 0e 9e bb 93 ae 83 3e dc 05 52 3c
       -0.35716873 -0.004823458 0.25719127 0.01281878
000350 ec da 72 bd 60 e6 40 3d 48 1c 9f bd ac d7 10 3e
       -0.05929081 0.047094703 -0.07769066 0.14144772
000360 8e 52 87 be 9d 97 c1 bc 62 d1 e2 3c 79 d6 68 bf
       -0.26430172 -0.023631865 0.027687732 -0.9095226
000370 45 67 11 bf 83 2b 3e 3b f5 a1 ff be 30 c0 7d bd
       -0.567982 0.0029017634 -0.4992825 -0.061950862
000380 4e 8f 24 3c ae 60 2f be 49 8b 52 bf 35 15 eb be
       0.010043932 -0.17126724 -0.8224378 -0.45914617
000390 a2 0c 58 bf c3 c4 bd be 92 d0 6f bf 37 8b 87 3e
       -0.84394276 -0.3706418 -0.9367763 0.264734
0003a0 70 b6 c2 3d 73 34 0f be 3b e7 38 be d9 fd 3f 3e
       0.095074534 -0.13984852 -0.18056957 0.18749179
0003b0 df c5 c5 bd f8 c1 fb 3d 5d fc 0f 3d 0c 69 ae 3c
       -0.096568815 0.12292856 0.03515278 0.021290325
0003c0 5e 18 0f 3f 1f 71 4a bc 21 00 f9 bc ab b2 63 3e
       0.55896556 -0.012356072 -0.03039557 0.22236125
0003d0 ca 2e 85 bd 79 f6 d5 be 60 75 b6 bd 48 35 53 3e
       -0.06503065 -0.41789606 -0.08909106 0.20625794
0003e0 c4 60 e0 bc 16 d4 d2 be 7f b3 8d be 66 c4 a1 3b
       -0.027389891 -0.41177434 -0.27676007 0.0049367426
0003f0 05 76 dc 3d 09 f1 f1 3e fd 08 7e 3c 58 48 b2 be
       0.10764698 0.47254208 0.015505073 -0.3482082

linear2.bias f4 [3]
000000 9f 60 56 3f 20 67 ba 3e cc 09 da 3e
       0.8374118 0.36406803 0.425856
